…
name in unet : up_blocks.3.attentions.1.transformer_blocks.0.attn1.processor
name in unet : up_blocks.3.attentions.1.transformer_blocks.0.attn2.processor
name in unet : up_blocks.3.attentions.2.transformer_blocks.0.attn1.processor
name in unet : up_blocks.3.attentions.2.transformer_blocks.0.attn2.processor
name in unet : mid_block.attentions.0.transformer_blocks.0.attn1.processor
name in unet : mid_block.attentions.0.transformer_blocks.0.attn2.processor
lora_attn_procs built : {'down_blocks.0.attentions.0.transformer_blocks.0.attn1.processor': LoRAAttnProcessor(
  (to_q_lora): LoRALinearLayer(
    (down): Linear(in_features=320, out_features=4, bias=False)
    (up): Linear(in_features=4, out_features=320, bias=False)
  )
  (to_k_lora): LoRALinearLayer(
    (down): Linear(in_features=320, out_features=4, bias=False)
    (up): Linear(in_features=4, out_features=320, bias=False)
  )
  (to_v_lora): LoRALinearLayer(
    (down): Linear(in_features=320, out_features=4, bias=False)
    (up): Linear(in_features=4, out_features=320, bias=False)
  )
  (to_out_lora): LoRALinearLayer(
    (down): Linear(in_features=320, out_features=4, bias=False)
    (up): Linear(in_features=4, out_features=320, bias=False)
  )
), 'down_blocks.0.attentions.0.transformer_blocks.0.attn2.processor': LoRAAttnProcessor(
  (to_q_lora): LoRALinearLayer(
    (down): Linear(in_features=320, out_features=4, bias=False)
    (up): Linear(in_features=4, out_features=320, bias=False)
  )
  (to_k_lora): LoRALinearLayer(
    (down): Linear(in_features=1024, out_features=4, bias=False)
    (up): Linear(in_features=4, out_features=320, bias=False)
  )
  (to_v_lora): LoRALinearLayer(
    (down): Linear(in_features=1024, out_features=4, bias=False)
    (up): Linear(in_features=4, out_features=320, bias=False)
  )
  (to_out_lora): LoRALinearLayer(
    (down): Linear(in_features=320, out_features=4, bias=False)
    (up): Linear(in_features=4, out_features=320, bias=False)
  )
), 'down_blocks.0.attentions.1.transformer_blocks.0.attn1.processor': LoRAAttnProcessor(
  (to_q_lora): LoRALinearLayer(
    (down): Linear(in_features=320, out_features=4, bias=False)
    (up): Linear(in_features=4, out_features=320, bias=False)
  )
  (to_k_lora): LoRALinearLayer(
    (down): Linear(in_features=320, out_features=4, bias=False)
    (up): Linear(in_features=4, out_features=320, bias=False)
  )
  (to_v_lora): LoRALinearLayer(
    (down): Linear(in_features=320, out_features=4, bias=False)
    (up): Linear(in_features=4, out_features=320, bias=False)
  )
  (to_out_lora): LoRALinearLayer(
    (down): Linear(in_features=320, out_features=4, bias=False)
    (up): Linear(in_features=4, out_features=320, bias=False)
  )
), 'down_blocks.0.attentions.1.transformer_blocks.0.attn2.processor': LoRAAttnProcessor(
  (to_q_lora): LoRALinearLayer(
    (down): Linear(in_features=320, out_features=4, bias=False)
    (up): Linear(in_features=4, out_features=320, bias=False)
  )
  (to_k_lora): LoRALinearLayer(
    (down): Linear(in_features=1024, out_features=4, bias=False)
    (up): Linear(in_features=4, out_features=320, bias=False)
  )
  (to_v_lora): LoRALinearLayer(
    (down): Linear(in_features=1024, out_features=4, bias=False)
    (up): Linear(in_features=4, out_features=320, bias=False)
  )
  (to_out_lora): LoRALinearLayer(
    (down): Linear(in_features=320, out_features=4, bias=False)
    (up): Linear(in_features=4, out_features=320, bias=False)
  )
), 'down_blocks.1.attentions.0.transformer_blocks.0.attn1.processor': LoRAAttnProcessor(
  (to_q_lora): LoRALinearLayer(
    (down): Linear(in_features=640, out_features=4, bias=False)
    (up): Linear(in_features=4, out_features=640, bias=False)
  )
  (to_k_lora): LoRALinearLayer(
    (down): Linear(in_features=640, out_features=4, bias=False)
    (up): Linear(in_features=4, out_features=640, bias=False)
  )
  (to_v_lora): LoRALinearLayer(
    (down): Linear(in_features=640, out_features=4, bias=False)
    (up): Linear(in_features=4, out_features=640, bias=False)
  )
  (to_out_lora): LoRALinearLayer(
    (down): Linear(in_features=640, out_features=4, bias=False)
    (up): Linear(in_features=4, out_features=640, bias=False)
  )
), 'down_blocks.1.attentions.0.transformer_blocks.0.attn2.processor': LoRAAttnProcessor(
  (to_q_lora): LoRALinearLayer(
    (down): Linear(in_features=640, out_features=4, bias=False)
    (up): Linear(in_features=4, out_features=640, bias=False)
  )
  (to_k_lora): LoRALinearLayer(
    (down): Linear(in_features=1024, out_features=4, bias=False)
    (up): Linear(in_features=4, out_features=640, bias=False)
  )
  (to_v_lora): LoRALinearLayer(
    (down): Linear(in_features=1024, out_features=4, bias=False)
    (up): Linear(in_features=4, out_features=640, bias=False)
  )
  (to_out_lora): LoRALinearLayer(
    (down): Linear(in_features=640, out_features=4, bias=False)
    (up): Linear(in_features=4, out_features=640, bias=False)
  )
), 'down_blocks.1.attentions.1.transformer_blocks.0.attn1.processor': LoRAAttnProcessor(
  (to_q_lora): LoRALinearLayer(
    (down): Linear(in_features=640, out_features=4, bias=False)
    (up): Linear(in_features=4, out_features=640, bias=False)
  )
  (to_k_lora): LoRALinearLayer(
    (down): Linear(in_features=640, out_features=4, bias=False)
    (up): Linear(in_features=4, out_features=640, bias=False)
  )
  (to_v_lora): LoRALinearLayer(
    (down): Linear(in_features=640, out_features=4, bias=False)
    (up): Linear(in_features=4, out_features=640, bias=False)
  )
  (to_out_lora): LoRALinearLayer(
    (down): Linear(in_features=640, out_features=4, bias=False)
    (up): Linear(in_features=4, out_features=640, bias=False)
  )
), 'down_blocks.1.attentions.1.transformer_blocks.0.attn2.processor': LoRAAttnProcessor(
  (to_q_lora): LoRALinearLayer(
    (down): Linear(in_features=640, out_features=4, bias=False)
    (up): Linear(in_features=4, out_features=640, bias=False)
  )
  (to_k_lora): LoRALinearLayer(
    (down): Linear(in_features=1024, out_features=4, bias=False)
    (up): Linear(in_features=4, out_features=640, bias=False)
  )
  (to_v_lora): LoRALinearLayer(
    (down): Linear(in_features=1024, out_features=4, bias=False)
    (up): Linear(in_features=4, out_features=640, bias=False)
  )
  (to_out_lora): LoRALinearLayer(
    (down): Linear(in_features=640, out_features=4, bias=False)
    (up): Linear(in_features=4, out_features=640, bias=False)
  )
), 'down_blocks.2.attentions.0.transformer_blocks.0.attn1.processor': LoRAAttnProcessor(
  (to_q_lora): LoRALinearLayer(
    (down): Linear(in_features=1280, out_features=4, bias=False)
    (up): Linear(in_features=4, out_features=1280, bias=False)
  )
  (to_k_lora): LoRALinearLayer(
    (down): Linear(in_features=1280, out_features=4, bias=False)
    (up): Linear(in_features=4, out_features=1280, bias=False)
  )
  (to_v_lora): LoRALinearLayer(
    (down): Linear(in_features=1280, out_features=4, bias=False)
    (up): Linear(in_features=4, out_features=1280, bias=False)
  )
  (to_out_lora): LoRALinearLayer(
    (down): Linear(in_features=1280, out_features=4, bias=False)
    (up): Linear(in_features=4, out_features=1280, bias=False)
  )
), 'down_blocks.2.attentions.0.transformer_blocks.0.attn2.processor': LoRAAttnProcessor(
  (to_q_lora): LoRALinearLayer(
    (down): Linear(in_features=1280, out_features=4, bias=False)
    (up): Linear(in_features=4, out_features=1280, bias=False)
  )
  (to_k_lora): LoRALinearLayer(
    (down): Linear(in_features=1024, out_features=4, bias=False)
    (up): Linear(in_features=4, out_features=1280, bias=False)
  )
  (to_v_lora): LoRALinearLayer(
    (down): Linear(in_features=1024, out_features=4, bias=False)
    (up): Linear(in_features=4, out_features=1280, bias=False)
  )
  (to_out_lora): LoRALinearLayer(
    (down): Linear(in_features=1280, out_features=4, bias=False)
    (up): Linear(in_features=4, out_features=1280, bias=False)
  )
), 'down_blocks.2.attentions.1.transformer_blocks.0.attn1.processor': LoRAAttnProcessor(
  (to_q_lora): LoRALinearLayer(
    (down): Linear(in_features=1280, out_features=4, bias=False)
    (up): Linear(in_features=4, out_features=1280, bias=False)
  )
  (to_k_lora): LoRALinearLayer(
    (down): Linear(in_features=1280, out_features=4, bias=False)
    (up): Linear(in_features=4, out_features=1280, bias=False)
  )
  (to_v_lora): LoRALinearLayer(
    (down): Linear(in_features=1280, out_features=4, bias=False)
    (up): Linear(in_features=4, out_features=1280, bias=False)
  )
  (to_out_lora): LoRALinearLayer(
    (down): Linear(in_features=1280, out_features=4, bias=False)
    (up): Linear(in_features=4, out_features=1280, bias=False)
  )
), 'down_blocks.2.attentions.1.transformer_blocks.0.attn2.processor': LoRAAttnProcessor(
  (to_q_lora): LoRALinearLayer(
    (down): Linear(in_features=1280, out_features=4, bias=False)
    (up): Linear(in_features=4, out_features=1280, bias=False)
  )
  (to_k_lora): LoRALinearLayer(
    (down): Linear(in_features=1024, out_features=4, bias=False)
    (up): Linear(in_features=4, out_features=1280, bias=False)
  )
  (to_v_lora): LoRALinearLayer(
    (down): Linear(in_features=1024, out_features=4, bias=False)
    (up): Linear(in_features=4, out_features=1280, bias=False)
  )
  (to_out_lora): LoRALinearLayer(
    (down): Linear(in_features=1280, out_features=4, bias=False)
    (up): Linear(in_features=4, out_features=1280, bias=False)
  )
), 'up_blocks.1.attentions.0.transformer_blocks.0.attn1.processor': LoRAAttnProcessor(
  (to_q_lora): LoRALinearLayer(
    (down): Linear(in_features=1280, out_features=4, bias=False)
    (up): Linear(in_features=4, out_features=1280, bias=False)
  )
  (to_k_lora): LoRALinearLayer(
    (down): Linear(in_features=1280, out_features=4, bias=False)
    (up): Linear(in_features=4, out_features=1280, bias=False)
  )
  (to_v_lora): LoRALinearLayer(
    (down): Linear(in_features=1280, out_features=4, bias=False)
    (up): Linear(in_features=4, out_features=1280, bias=False)
  )
  (to_out_lora): LoRALinearLayer(
    (down): Linear(in_features=1280, out_features=4, bias=False)
    (up): Linear(in_features=4, out_features=1280, bias=False)
  )
), 'up_blocks.1.attentions.0.transformer_blocks.0.attn2.processor': LoRAAttnProcessor(
  (to_q_lora): LoRALinearLayer(
    (down): Linear(in_features=1280, out_features=4, bias=False)
    (up): Linear(in_features=4, out_features=1280, bias=False)
  )
  (to_k_lora): LoRALinearLayer(
    (down): Linear(in_features=1024, out_features=4, bias=False)
    (up): Linear(in_features=4, out_features=1280, bias=False)
  )
  (to_v_lora): LoRALinearLayer(
    (down): Linear(in_features=1024, out_features=4, bias=False)
    (up): Linear(in_features=4, out_features=1280, bias=False)
  )
  (to_out_lora): LoRALinearLayer(
    (down): Linear(in_features=1280, out_features=4, bias=False)
    (up): Linear(in_features=4, out_features=1280, bias=False)
  )
), 'up_blocks.1.attentions.1.transformer_blocks.0.attn1.processor': LoRAAttnProcessor(
  (to_q_lora): LoRALinearLayer(
    (down): Linear(in_features=1280, out_features=4, bias=False)
    (up): Linear(in_features=4, out_features=1280, bias=False)
  )
  (to_k_lora): LoRALinearLayer(
    (down): Linear(in_features=1280, out_features=4, bias=False)
    (up): Linear(in_features=4, out_features=1280, bias=False)
  )
  (to_v_lora): LoRALinearLayer(
    (down): Linear(in_features=1280, out_features=4, bias=False)
    (up): Linear(in_features=4, out_features=1280, bias=False)
  )
  (to_out_lora): LoRALinearLayer(
    (down): Linear(in_features=1280, out_features=4, bias=False)
    (up): Linear(in_features=4, out_features=1280, bias=False)
  )
), 'up_blocks.1.attentions.1.transformer_blocks.0.attn2.processor': LoRAAttnProcessor(
  (to_q_lora): LoRALinearLayer(
    (down): Linear(in_features=1280, out_features=4, bias=False)
    (up): Linear(in_features=4, out_features=1280, bias=False)
  )
  (to_k_lora): LoRALinearLayer(
    (down): Linear(in_features=1024, out_features=4, bias=False)
    (up): Linear(in_features=4, out_features=1280, bias=False)
  )
  (to_v_lora): LoRALinearLayer(
    (down): Linear(in_features=1024, out_features=4, bias=False)
    (up): Linear(in_features=4, out_features=1280, bias=False)
  )
  (to_out_lora): LoRALinearLayer(
    (down): Linear(in_features=1280, out_features=4, bias=False)
    (up): Linear(in_features=4, out_features=1280, bias=False)
  )
), 'up_blocks.1.attentions.2.transformer_blocks.0.attn1.processor': LoRAAttnProcessor(
  (to_q_lora): LoRALinearLayer(
    (down): Linear(in_features=1280, out_features=4, bias=False)
    (up): Linear(in_features=4, out_features=1280, bias=False)
  )
  (to_k_lora): LoRALinearLayer(
    (down): Linear(in_features=1280, out_features=4, bias=False)
    (up): Linear(in_features=4, out_features=1280, bias=False)
  )
  (to_v_lora): LoRALinearLayer(
    (down): Linear(in_features=1280, out_features=4, bias=False)
    (up): Linear(in_features=4, out_features=1280, bias=False)
  )
  (to_out_lora): LoRALinearLayer(
    (down): Linear(in_features=1280, out_features=4, bias=False)
    (up): Linear(in_features=4, out_features=1280, bias=False)
  )
), 'up_blocks.1.attentions.2.transformer_blocks.0.attn2.processor': LoRAAttnProcessor(
  (to_q_lora): LoRALinearLayer(
    (down): Linear(in_features=1280, out_features=4, bias=False)
    (up): Linear(in_features=4, out_features=1280, bias=False)
  )
  (to_k_lora): LoRALinearLayer(
    (down): Linear(in_features=1024, out_features=4, bias=False)
    (up): Linear(in_features=4, out_features=1280, bias=False)
  )
  (to_v_lora): LoRALinearLayer(
    (down): Linear(in_features=1024, out_features=4, bias=False)
    (up): Linear(in_features=4, out_features=1280, bias=False)
  )
  (to_out_lora): LoRALinearLayer(
    (down): Linear(in_features=1280, out_features=4, bias=False)
    (up): Linear(in_features=4, out_features=1280, bias=False)
  )
), 'up_blocks.2.attentions.0.transformer_blocks.0.attn1.processor': LoRAAttnProcessor(
  (to_q_lora): LoRALinearLayer(
    (down): Linear(in_features=640, out_features=4, bias=False)
    (up): Linear(in_features=4, out_features=640, bias=False)
  )
  (to_k_lora): LoRALinearLayer(
    (down): Linear(in_features=640, out_features=4, bias=False)
    (up): Linear(in_features=4, out_features=640, bias=False)
  )
  (to_v_lora): LoRALinearLayer(
    (down): Linear(in_features=640, out_features=4, bias=False)
    (up): Linear(in_features=4, out_features=640, bias=False)
  )
  (to_out_lora): LoRALinearLayer(
    (down): Linear(in_features=640, out_features=4, bias=False)
    (up): Linear(in_features=4, out_features=640, bias=False)
  )
), 'up_blocks.2.attentions.0.transformer_blocks.0.attn2.processor': LoRAAttnProcessor(
  (to_q_lora): LoRALinearLayer(
    (down): Linear(in_features=640, out_features=4, bias=False)
    (up): Linear(in_features=4, out_features=640, bias=False)
  )
  (to_k_lora): LoRALinearLayer(
    (down): Linear(in_features=1024, out_features=4, bias=False)
    (up): Linear(in_features=4, out_features=640, bias=False)
  )
  (to_v_lora): LoRALinearLayer(
    (down): Linear(in_features=1024, out_features=4, bias=False)
    (up): Linear(in_features=4, out_features=640, bias=False)
  )
  (to_out_lora): LoRALinearLayer(
    (down): Linear(in_features=640, out_features=4, bias=False)
    (up): Linear(in_features=4, out_features=640, bias=False)
  )
), 'up_blocks.2.attentions.1.transformer_blocks.0.attn1.processor': LoRAAttnProcessor(
  (to_q_lora): LoRALinearLayer(
    (down): Linear(in_features=640, out_features=4, bias=False)
    (up): Linear(in_features=4, out_features=640, bias=False)
  )
  (to_k_lora): LoRALinearLayer(
    (down): Linear(in_features=640, out_features=4, bias=False)
    (up): Linear(in_features=4, out_features=640, bias=False)
  )
  (to_v_lora): LoRALinearLayer(
    (down): Linear(in_features=640, out_features=4, bias=False)
    (up): Linear(in_features=4, out_features=640, bias=False)
  )
  (to_out_lora): LoRALinearLayer(
    (down): Linear(in_features=640, out_features=4, bias=False)
    (up): Linear(in_features=4, out_features=640, bias=False)
  )
), 'up_blocks.2.attentions.1.transformer_blocks.0.attn2.processor': LoRAAttnProcessor(
  (to_q_lora): LoRALinearLayer(
    (down): Linear(in_features=640, out_features=4, bias=False)
    (up): Linear(in_features=4, out_features=640, bias=False)
  )
  (to_k_lora): LoRALinearLayer(
    (down): Linear(in_features=1024, out_features=4, bias=False)
    (up): Linear(in_features=4, out_features=640, bias=False)
  )
  (to_v_lora): LoRALinearLayer(
    (down): Linear(in_features=1024, out_features=4, bias=False)
    (up): Linear(in_features=4, out_features=640, bias=False)
  )
  (to_out_lora): LoRALinearLayer(
    (down): Linear(in_features=640, out_features=4, bias=False)
    (up): Linear(in_features=4, out_features=640, bias=False)
  )
), 'up_blocks.2.attentions.2.transformer_blocks.0.attn1.processor': LoRAAttnProcessor(
  (to_q_lora): LoRALinearLayer(
    (down): Linear(in_features=640, out_features=4, bias=False)
    (up): Linear(in_features=4, out_features=640, bias=False)
  )
  (to_k_lora): LoRALinearLayer(
    (down): Linear(in_features=640, out_features=4, bias=False)
    (up): Linear(in_features=4, out_features=640, bias=False)
  )
  (to_v_lora): LoRALinearLayer(
    (down): Linear(in_features=640, out_features=4, bias=False)
    (up): Linear(in_features=4, out_features=640, bias=False)
  )
  (to_out_lora): LoRALinearLayer(
    (down): Linear(in_features=640, out_features=4, bias=False)
    (up): Linear(in_features=4, out_features=640, bias=False)
  )
), 'up_blocks.2.attentions.2.transformer_blocks.0.attn2.processor': LoRAAttnProcessor(
  (to_q_lora): LoRALinearLayer(
    (down): Linear(in_features=640, out_features=4, bias=False)
    (up): Linear(in_features=4, out_features=640, bias=False)
  )
  (to_k_lora): LoRALinearLayer(
    (down): Linear(in_features=1024, out_features=4, bias=False)
    (up): Linear(in_features=4, out_features=640, bias=False)
  )
  (to_v_lora): LoRALinearLayer(
    (down): Linear(in_features=1024, out_features=4, bias=False)
    (up): Linear(in_features=4, out_features=640, bias=False)
  )
  (to_out_lora): LoRALinearLayer(
    (down): Linear(in_features=640, out_features=4, bias=False)
    (up): Linear(in_features=4, out_features=640, bias=False)
  )
), 'up_blocks.3.attentions.0.transformer_blocks.0.attn1.processor': LoRAAttnProcessor(
  (to_q_lora): LoRALinearLayer(
    (down): Linear(in_features=320, out_features=4, bias=False)
    (up): Linear(in_features=4, out_features=320, bias=False)
  )
  (to_k_lora): LoRALinearLayer(
    (down): Linear(in_features=320, out_features=4, bias=False)
    (up): Linear(in_features=4, out_features=320, bias=False)
  )
  (to_v_lora): LoRALinearLayer(
    (down): Linear(in_features=320, out_features=4, bias=False)
    (up): Linear(in_features=4, out_features=320, bias=False)
  )
  (to_out_lora): LoRALinearLayer(
    (down): Linear(in_features=320, out_features=4, bias=False)
    (up): Linear(in_features=4, out_features=320, bias=False)
  )
), 'up_blocks.3.attentions.0.transformer_blocks.0.attn2.processor': LoRAAttnProcessor(
  (to_q_lora): LoRALinearLayer(
    (down): Linear(in_features=320, out_features=4, bias=False)
    (up): Linear(in_features=4, out_features=320, bias=False)
  )
  (to_k_lora): LoRALinearLayer(
    (down): Linear(in_features=1024, out_features=4, bias=False)
    (up): Linear(in_features=4, out_features=320, bias=False)
  )
  (to_v_lora): LoRALinearLayer(
    (down): Linear(in_features=1024, out_features=4, bias=False)
    (up): Linear(in_features=4, out_features=320, bias=False)
  )
  (to_out_lora): LoRALinearLayer(
    (down): Linear(in_features=320, out_features=4, bias=False)
    (up): Linear(in_features=4, out_features=320, bias=False)
  )
), 'up_blocks.3.attentions.1.transformer_blocks.0.attn1.processor': LoRAAttnProcessor(
  (to_q_lora): LoRALinearLayer(
    (down): Linear(in_features=320, out_features=4, bias=False)
    (up): Linear(in_features=4, out_features=320, bias=False)
  )
  (to_k_lora): LoRALinearLayer(
    (down): Linear(in_features=320, out_features=4, bias=False)
    (up): Linear(in_features=4, out_features=320, bias=False)
  )
  (to_v_lora): LoRALinearLayer(
    (down): Linear(in_features=320, out_features=4, bias=False)
    (up): Linear(in_features=4, out_features=320, bias=False)
  )
  (to_out_lora): LoRALinearLayer(
    (down): Linear(in_features=320, out_features=4, bias=False)
    (up): Linear(in_features=4, out_features=320, bias=False)
  )
), 'up_blocks.3.attentions.1.transformer_blocks.0.attn2.processor': LoRAAttnProcessor(
  (to_q_lora): LoRALinearLayer(
    (down): Linear(in_features=320, out_features=4, bias=False)
    (up): Linear(in_features=4, out_features=320, bias=False)
  )
  (to_k_lora): LoRALinearLayer(
    (down): Linear(in_features=1024, out_features=4, bias=False)
    (up): Linear(in_features=4, out_features=320, bias=False)
  )
  (to_v_lora): LoRALinearLayer(
    (down): Linear(in_features=1024, out_features=4, bias=False)
    (up): Linear(in_features=4, out_features=320, bias=False)
  )
  (to_out_lora): LoRALinearLayer(
    (down): Linear(in_features=320, out_features=4, bias=False)
    (up): Linear(in_features=4, out_features=320, bias=False)
  )
), 'up_blocks.3.attentions.2.transformer_blocks.0.attn1.processor': LoRAAttnProcessor(
  (to_q_lora): LoRALinearLayer(
    (down): Linear(in_features=320, out_features=4, bias=False)
    (up): Linear(in_features=4, out_features=320, bias=False)
  )
  (to_k_lora): LoRALinearLayer(
    (down): Linear(in_features=320, out_features=4, bias=False)
    (up): Linear(in_features=4, out_features=320, bias=False)
  )
  (to_v_lora): LoRALinearLayer(
    (down): Linear(in_features=320, out_features=4, bias=False)
    (up): Linear(in_features=4, out_features=320, bias=False)
  )
  (to_out_lora): LoRALinearLayer(
    (down): Linear(in_features=320, out_features=4, bias=False)
    (up): Linear(in_features=4, out_features=320, bias=False)
  )
), 'up_blocks.3.attentions.2.transformer_blocks.0.attn2.processor': LoRAAttnProcessor(
  (to_q_lora): LoRALinearLayer(
    (down): Linear(in_features=320, out_features=4, bias=False)
    (up): Linear(in_features=4, out_features=320, bias=False)
  )
  (to_k_lora): LoRALinearLayer(
    (down): Linear(in_features=1024, out_features=4, bias=False)
    (up): Linear(in_features=4, out_features=320, bias=False)
  )
  (to_v_lora): LoRALinearLayer(
    (down): Linear(in_features=1024, out_features=4, bias=False)
    (up): Linear(in_features=4, out_features=320, bias=False)
  )
  (to_out_lora): LoRALinearLayer(
    (down): Linear(in_features=320, out_features=4, bias=False)
    (up): Linear(in_features=4, out_features=320, bias=False)
  )
), 'mid_block.attentions.0.transformer_blocks.0.attn1.processor': LoRAAttnProcessor(
  (to_q_lora): LoRALinearLayer(
    (down): Linear(in_features=1280, out_features=4, bias=False)
    (up): Linear(in_features=4, out_features=1280, bias=False)
  )
  (to_k_lora): LoRALinearLayer(
    (down): Linear(in_features=1280, out_features=4, bias=False)
    (up): Linear(in_features=4, out_features=1280, bias=False)
  )
  (to_v_lora): LoRALinearLayer(
    (down): Linear(in_features=1280, out_features=4, bias=False)
    (up): Linear(in_features=4, out_features=1280, bias=False)
  )
  (to_out_lora): LoRALinearLayer(
    (down): Linear(in_features=1280, out_features=4, bias=False)
    (up): Linear(in_features=4, out_features=1280, bias=False)
  )
), 'mid_block.attentions.0.transformer_blocks.0.attn2.processor': LoRAAttnProcessor(
  (to_q_lora): LoRALinearLayer(
    (down): Linear(in_features=1280, out_features=4, bias=False)
    (up): Linear(in_features=4, out_features=1280, bias=False)
  )
  (to_k_lora): LoRALinearLayer(
    (down): Linear(in_features=1024, out_features=4, bias=False)
    (up): Linear(in_features=4, out_features=1280, bias=False)
  )
  (to_v_lora): LoRALinearLayer(
    (down): Linear(in_features=1024, out_features=4, bias=False)
    (up): Linear(in_features=4, out_features=1280, bias=False)
  )
  (to_out_lora): LoRALinearLayer(
    (down): Linear(in_features=1280, out_features=4, bias=False)
    (up): Linear(in_features=4, out_features=1280, bias=False)
  )
)}
unet.set_attn_processor using lora_attn_procs done
lora_layers populated
optimizer_cls : <class 'torch.optim.adamw.AdamW'>
Preparing image_list : args.caption_file_path : /content/image_captions.json
args.image_dir : /content/exr_subset/120/, args.token_limit: 50
 caption lengths : 200, 200
train_dataset prepared : 200
train_dataloader prepared with bs : 4
…
